Model's Architecture Summary:
Model: "sequential"
_________________________________________________________________
 Layer (type)                Output Shape              Param #   
=================================================================
 reshape (Reshape)           (None, 28, 28, 1)         0         
                                                                 
 conv2d (Conv2D)             (None, 26, 26, 32)        320       
                                                                 
 batch_normalization (Batch  (None, 26, 26, 32)        128       
 Normalization)                                                  
                                                                 
 max_pooling2d (MaxPooling2  (None, 13, 13, 32)        0         
 D)                                                              
                                                                 
 conv2d_1 (Conv2D)           (None, 11, 11, 64)        18496     
                                                                 
 batch_normalization_1 (Bat  (None, 11, 11, 64)        256       
 chNormalization)                                                
                                                                 
 max_pooling2d_1 (MaxPoolin  (None, 5, 5, 64)          0         
 g2D)                                                            
                                                                 
 flatten (Flatten)           (None, 1600)              0         
                                                                 
 dense (Dense)               (None, 128)               204928    
                                                                 
 dropout (Dropout)           (None, 128)               0         
                                                                 
 dense_1 (Dense)             (None, 10)                1290      
                                                                 
=================================================================
Total params: 225418 (880.54 KB)
Trainable params: 225226 (879.79 KB)
Non-trainable params: 192 (768.00 Byte)
_________________________________________________________________

Evaluation Metric(s) Obtained:
Classification Accuracy: 0.9157

Confusion Matrix:
904 1 6 13 0 1 72 0 3 0
…
